Lab1/cos/models/model.tflite (tflite, 2488 bytes, 3 tensors)

std.constant i1 [16, 1] scale=0.005358247 zero_point=0
00000000: 2d16 f5e8 fc9c b95b fede e5c2 4b7f 0fe6
0.24112111 0.11788143 -0.058940716 -0.12859793 -0.021432988 -0.5358247 -0.38043556 0.48760048
-0.010716494 -0.1821804 -0.14467268 -0.33221132 0.40186852 0.6804974 0.080373704 -0.13931443

std.constant1 i1 [16, 16] scale=0.009511696 zero_point=0
00000000: e8fa ffe5 061e e9e5 ddf5 0402 00f8 f6f2
00000010: ded8 151a e4d3 d8d6 ebd3 1d08 0bd5 d1f7
00000020: ff16 0fd5 f2fe e103 dee9 e724 1ce6 df01
00000030: 17f9 fbf4 16e5 191f 0519 3fde fc0a ccd5
00000040: 06e8 a4d3 cef4 073f 22db d023 df26 1bd4
00000050: 25e3 1d22 3a04 24bb d31a 2c21 f7d9 1e1f
00000060: ea1c f923 282b dc0f f1ff 500f fafd e0d3
00000070: 0dfd c3da d8fb 12f3 f9e5 87fb 2805 49d9
00000080: e5e5 07e6 eaff 1a08 e510 091b 1ddc f9f0
00000090: 24fa 0306 4503 1cce e303 4aff 0ef4 fae2
000000a0: 02fb 54fb 3802 eadc 08e8 4912 07cc f716
000000b0: f9fe d7ec 26fe 12ed e517 1127 f0db 1c20
000000c0: d5fa eff0 0626 27fa fc28 fa17 e009 0c04
000000d0: 13f5 17f9 d125 f7f1 eede e710 26fc 22fc
000000e0: 0cf2 c622 0ff9 d532 291a 8126 18e7 2c10
000000f0: e5d9 d719 09e4 ec0a 25f8 05dc f6f5 0bef
-0.22828071 -0.057070177 -0.009511696 -0.2568158 0.057070177 0.2853509 -0.21876901 -0.2568158
-0.33290938 -0.10462866 0.038046785 0.019023392 0.0 -0.07609357 -0.09511696 -0.13316375
-0.32339767 -0.38046783 0.19974563 0.2473041 -0.2663275 -0.42802632 -0.38046783 -0.39949125
-0.19974563 -0.42802632 0.27583918 0.07609357 0.10462866 -0.40900293 -0.4470497 -0.08560526
-0.009511696 0.20925732 0.14267544 -0.40900293 -0.13316375 -0.019023392 -0.29486257 0.028535089
-0.32339767 -0.21876901 -0.2377924 0.34242105 0.2663275 -0.2473041 -0.313886 0.009511696
0.21876901 -0.066581875 -0.04755848 -0.114140354 0.20925732 -0.2568158 0.2377924 0.29486257
0.04755848 0.2377924 0.59923685 -0.32339767 -0.038046785 0.09511696 -0.4946082 -0.40900293
0.057070177 -0.22828071 -0.87507606 -0.42802632 -0.4755848 -0.114140354 0.066581875 0.59923685
0.32339767 -0.35193276 -0.45656142 0.33290938 -0.313886 0.36144444 0.2568158 -0.41851464
0.35193276 -0.27583918 0.27583918 0.32339767 0.55167836 0.038046785 0.34242105 -0.65630704
-0.42802632 0.2473041 0.41851464 0.313886 -0.08560526 -0.37095615 0.2853509 0.29486257
-0.20925732 0.2663275 -0.066581875 0.33290938 0.38046783 0.40900293 -0.34242105 0.14267544
-0.14267544 -0.009511696 0.76093566 0.14267544 -0.057070177 -0.028535089 -0.30437428 -0.42802632
0.12365205 -0.028535089 -0.5802135 -0.36144444 -0.38046783 -0.04755848 0.17121053 -0.12365205
-0.066581875 -0.2568158 -1.1509153 -0.04755848 0.38046783 0.04755848 0.6943538 -0.37095615
-0.2568158 -0.2568158 0.066581875 -0.2473041 -0.20925732 -0.009511696 0.2473041 0.07609357
-0.2568158 0.15218714 0.08560526 0.2568158 0.27583918 -0.34242105 -0.066581875 -0.15218714
0.34242105 -0.057070177 0.028535089 0.057070177 0.65630704 0.028535089 0.2663275 -0.4755848
-0.27583918 0.028535089 0.7038655 -0.009511696 0.13316375 -0.114140354 -0.057070177 -0.2853509
0.019023392 -0.04755848 0.7989825 -0.04755848 0.532655 0.019023392 -0.20925732 -0.34242105
0.07609357 -0.22828071 0.6943538 0.17121053 0.066581875 -0.4946082 -0.08560526 0.20925732
-0.066581875 -0.019023392 -0.38997954 -0.19023392 0.36144444 -0.019023392 0.17121053 -0.18072222
-0.2568158 0.21876901 0.16169883 0.37095615 -0.15218714 -0.35193276 0.2663275 0.30437428
-0.40900293 -0.057070177 -0.16169883 -0.15218714 0.057070177 0.36144444 0.37095615 -0.057070177
-0.038046785 0.38046783 -0.057070177 0.21876901 -0.30437428 0.08560526 0.114140354 0.038046785
0.18072222 -0.10462866 0.21876901 -0.066581875 -0.4470497 0.35193276 -0.08560526 -0.14267544
-0.17121053 -0.32339767 -0.2377924 0.15218714 0.36144444 -0.038046785 0.32339767 -0.038046785
0.114140354 -0.13316375 -0.55167836 0.32339767 0.14267544 -0.066581875 -0.40900293 0.4755848
0.38997954 0.2473041 -1.2079854 0.36144444 0.22828071 -0.2377924 0.41851464 0.15218714
-0.2568158 -0.37095615 -0.38997954 0.2377924 0.08560526 -0.2663275 -0.19023392 0.09511696
0.35193276 -0.07609357 0.04755848 -0.34242105 -0.09511696 -0.10462866 0.10462866 -0.16169883

std.constant2 i1 [1, 16] scale=0.0069686812 zero_point=0
00000000: 28cd b7ce 6772 e227 b8b3 7fc8 d814 61cd
0.27874726 -0.35540274 -0.5087137 -0.34843406 0.71777415 0.79442966 -0.20906043 0.27177855
-0.50174505 -0.53658843 0.8850225 -0.39024615 -0.27874726 0.13937363 0.6759621 -0.35540274
