Lab1/cos/models/model_no_quant.tflite (tflite, 2788 bytes, 5 tensors)

dense_8/bias f4 [16]
0.0 -0.06386604 -0.015050293 0.17136003 -0.3305688 0.3674124 0.20534955 -0.28368104
-0.0057167085 0.30873892 0.3629883 -0.0462236 0.0 -0.14338125 -0.30058995 -0.006972
00000000: 0000 0000 33cc 82bd 8195 76bc 0179 2f3e
00000010: 5040 a9be 7a1d bc3e 2747 523e a43e 91be
00000020: 3a53 bbbb 0713 9e3e 9ad9 b93e f554 3dbd
00000030: 0000 0000 89d2 12be ede6 99be 6075 e4bb

dense_7/bias f4 [16]
0.33205265 0.15639485 0.5360859 0.0 0.53781116 0.0 0.0 -0.48339033
0.0 0.0 0.76655155 0.0 0.28535813 -0.22667587 -0.21593322 0.0
00000000: ce02 aa3e f925 203e ed3c 093f 0000 0000
00000010: fead 093f 0000 0000 0000 0000 f07e f7be
00000020: 0000 0000 0000 0000 b93c 443f 0000 0000
00000030: 761a 923e b81d 68be 991d 5dbe 0000 0000

std.constant f4 [16, 1]
0.23884691 0.118296504 -0.059975702 -0.12941524 -0.022966124 -0.5364836 -0.38303018 0.48990625
-0.009614229 -0.18292877 -0.14439237 -0.33070034 0.40106565 0.6804974 0.08037467 -0.14003724
00000000: 4994 743e 7045 f23d 15a9 75bd 6e85 04be
00000010: 7423 bcbc fd56 09bf 881c c4be fed4 fa3e
00000020: 0085 1dbc ae51 3bbe 98db 13be 8e51 a9be
00000030: 7a58 cd3e 1435 2e3f 7a9b a43d ec65 0fbe

std.constant1 f4 [16, 16]
-0.22823916 -0.052720785 -0.0058372915 -0.25366902 0.060682416 0.28659388 -0.21606582 -0.25502443
-0.3339057 -0.10099119 0.035239458 0.015801132 0.0022124946 -0.08006841 -0.09637499 -0.13718683
-0.32762867 -0.3762632 0.19992338 0.2500693 -0.26656225 -0.429534 -0.3851473 -0.4026664
-0.2041255 -0.42450017 0.27580944 0.07787874 0.10347006 -0.40561217 -0.45118764 -0.08642241
-0.011816962 0.21333317 0.13803539 -0.40909198 -0.13364923 -0.016229868 -0.29218113 0.026780924
-0.32202196 -0.21818222 -0.2364489 0.3447055 0.26788065 -0.24978153 -0.3138975 0.007964015
0.22313139 -0.06296569 -0.047592137 -0.1153315 0.20777348 -0.25703943 0.23521909 0.29957193
0.050147384 0.24008337 0.5965987 -0.32450515 -0.03754569 0.09520173 -0.49207243 -0.4052761
0.060574986 -0.22716494 -0.87955403 -0.42761633 -0.47732607 -0.11129168 0.06694567 0.59974927
0.32554165 -0.35316986 -0.4530895 0.3290477 -0.31815282 0.35887054 0.25910085 -0.42291
0.35172957 -0.27838442 0.2768566 0.3187779 0.55275536 0.03553483 0.34623393 -0.65933627
-0.42959931 0.24439278 0.4199893 0.31687275 -0.088634096 -0.3711127 0.28343332 0.29952416
-0.21058102 0.26175496 -0.062151738 0.33757058 0.3786465 0.4098654 -0.33875325 0.14729647
-0.13870257 -0.0066515505 0.7593189 0.14057377 -0.05473914 -0.030299144 -0.3015515 -0.42781618
0.11932131 -0.028249122 -0.5754717 -0.3632678 -0.38228732 -0.049308866 0.17075858 -0.12716922
-0.069954455 -0.2590307 -1.1545299 -0.0463064 0.3824454 0.043079086 0.6917287 -0.37561274
-0.25762883 -0.25403708 0.064415194 -0.25091267 -0.20587848 -0.005879104 0.24520525 0.08073429
-0.25441206 0.15379933 0.086339146 0.2553133 0.27288768 -0.34459922 -0.06224061 -0.15105608
0.33925748 -0.060243644 0.024032582 0.05923751 0.6586569 0.030715048 0.2644975 -0.47974333
-0.27947292 0.027822107 0.7069267 -0.0052262247 0.13042344 -0.11285737 -0.058688194 -0.28377444
0.018047076 -0.050574843 0.798731 -0.044026673 0.53697395 0.022341996 -0.2092455 -0.34419456
0.076928824 -0.22963133 0.6914493 0.16723207 0.06481938 -0.491975 -0.08801084 0.21264306
-0.06927188 -0.014736049 -0.39186952 -0.19461034 0.3606861 -0.015184283 0.17192736 -0.17963643
-0.25724232 0.22180286 0.16413984 0.36643216 -0.15502511 -0.35382146 0.26570293 0.30512455
-0.40692902 -0.059139848 -0.16473535 -0.15186402 0.05970466 0.3601468 0.37111476 -0.0590401
-0.042262226 0.37717226 -0.05240056 0.2194033 -0.30605668 0.08283809 0.11403349 0.041466683
0.18031089 -0.10343276 0.21951233 -0.06874749 -0.4461605 0.347994 -0.08676618 -0.13852033
-0.16684172 -0.32129547 -0.23468894 0.15223154 0.36366743 -0.037925553 0.32058862 -0.039556473
0.115101136 -0.13516136 -0.549372 0.32121834 0.14693186 -0.07065296 -0.40995854 0.47360167
0.38645038 0.24506071 -1.2079854 0.35802218 0.22616483 -0.23484892 0.422105 0.14788058
-0.25601307 -0.37367237 -0.39430723 0.2366822 0.08944592 -0.2678936 -0.18872555 0.09045245
0.3482965 -0.07605356 0.04879105 -0.34355003 -0.090507865 -0.10121227 0.10649344 -0.15751198
00000000: 87b7 69be c0f1 57bd c046 bfbb e8e0 81be
00000010: 208e 783d 6fbc 923e 5c40 5dbe 9092 82be
00000020: b0f5 aabe 78d4 cebd 4057 103d 6071 813c
00000030: 80ff 103b e8fa a3bd 4060 c5bd b47a 0cbe
00000040: f2be a7be 92a5 c0be b7b8 4c3e 1509 803e
00000050: d97a 88be e1eb dbbe 0732 c5be 4a2a cebe
00000060: 4606 51be 1658 d9be e536 8d3e e47e 9f3d
00000070: 1ce8 d33d 66ac cfbe 1102 e7be 3cfe b0bd
00000080: ee9b 41bc 0374 5a3e 2659 0d3e 8174 d1be
00000090: 58db 08be 80f4 84bc c498 95be ab63 db3c
000000a0: 10e0 a4be 296b 5fbe a91f 72be 3d7d b03e
000000b0: a727 893e bbc6 7fbe 2cb7 a0be 807b 023c
000000c0: 8e7c 643e 28f4 80bd f9ef 42bd ec32 ecbd
000000d0: 92c2 543e ac9a 83be 46dd 703e 7e61 993e
000000e0: 5867 4d3d 6ad8 753e b1ba 183f 8a25 a6be
000000f0: 82c9 19bd 20f9 c23d ebf0 fbbe 5980 cfbe
00000100: 7a1d 783d ed9d 68be 742a 61bf 87f0 dabe
00000110: 1564 f4be e4ec e3bd d01a 893d 2b89 193f
00000120: 65ad a63e aed2 b4be 59fb e7be f178 a83e
00000130: ede4 a2be e1bd b73e dea8 843e a987 d8be
00000140: e615 b43e 6788 8ebe 26c0 8d3e db36 a33e
00000150: 6081 0d3f f88c 113d 9345 b13e 43ca 28bf
00000160: 71f4 dbbe 1a42 7a3e d608 d73e 253d a23e
00000170: cb85 b5bd 7c02 bebe 2c1e 913e 3b5b 993e
00000180: 8da2 57be bf04 863e d292 7ebd 0dd6 ac3e
00000190: f4dd c13e e1d9 d13e 1171 adbe e3d4 163e
000001a0: 0c08 0ebe 40f5 d9bb b962 423f 92f2 0f3e
000001b0: 2636 60bd e935 f8bc f564 9abe b90a dbbe
000001c0: bb5e f43d b46a e7bc 1d52 13bf 3dfe b9be
000001d0: 2abb c3be 18f8 49bd 56db 2e3e a638 02be
000001e0: 4844 8fbd ac9f 84be a3c7 93bf c8ab 3dbd
000001f0: e2cf c33e b273 303d 2215 313f 5050 c0be
00000200: ede7 83be 2611 82be 1dec 833d a077 80be
00000210: cfd1 52be 80a5 c0bb 1617 7b3e 0558 a53d
00000220: 4c42 82be 927d 1d3e 94d2 b03d 6db8 823e
00000230: efb7 8b3e 4f6f b0be 03f0 7ebd 72ae 1abe
00000240: 28b3 ad3e 0ac2 76bd fadf c43c 08a3 723d
00000250: bd9d 283f 209e fb3c 376c 873e eba0 f5be
00000260: 1317 8fbe 30eb e33c 26f9 343f c040 abbb
00000270: b98d 053e c421 e7bd 0863 70bd e24a 91be
00000280: 76d7 933c 9127 4fbd a379 4c3f 5055 34bd
00000290: 2077 093f 9006 b73c 7444 56be 453a b0be
000002a0: dc8c 9d3d 7a24 6bbe d202 313f e23e 2b3e
000002b0: 06c0 843d 26e4 fbbe 073f b4bd 1abf 593e
000002c0: 6ade 8dbd 786f 71bc 1fa3 c8be ef47 47be
000002d0: d9ab b83e 80c7 78bc ba0d 303e 9df2 37be
000002e0: 44b5 83be 4a20 633e 4614 283e ff9c bb3e
000002f0: e7be 1ebe 1628 b5be 370a 883e 4939 9c3e
00000300: 0059 d0be a03c 72bd 62b0 28be 3e82 1bbe
00000310: e08c 743d 2965 b83e c102 be3e 08d4 71bd
00000320: 281b 2dbd b91c c13e f8a1 56bd 42ab 603e
00000330: 76b3 9cbe 04a7 a93d 648a e93d f8d8 293d
00000340: 6ba3 383e 8ed4 d3bd d7c7 603e 7ccb 8cbd
00000350: 266f e4be 452c b23e 78b2 b1bd 46d8 0dbe
00000360: 8ed8 2abe d780 a4be 4c52 70be 96e2 1b3e
00000370: 9e32 ba3e d357 1bbd 3124 a43e f805 22bd
00000380: 25ba eb3d bd67 0abe a5a3 0cbf bb76 a43e
00000390: 4e75 163e 80b2 90bd 16e6 d1be eb7b f23e
000003a0: d3dc c53e 32f1 7a3e 449f 9abf af4e b73e
000003b0: c197 673e 3c7c 70be 261e d83e 026e 173e
000003c0: 2514 83be fc51 bfbe a3e2 c9be d25c 723e
000003d0: 6c2f b73d 5a29 89be 4541 41be 223f b93d
000003e0: eb53 b23e f8c1 9bbd 20d9 473d cae5 afbe
000003f0: 305c b9bd 6148 cfbd 3c19 da3d d24a 21be

std.constant2 f4 [1, 16]
0.27896255 -0.35466918 -0.50694215 -0.3477189 0.719957 0.79754335 -0.20646198 0.27507564
-0.50319993 -0.53947973 0.8850225 -0.3888216 -0.2808103 0.13865511 0.6735358 -0.3543545
00000000: 2ed4 8e3e 3397 b5be f6c6 01bf 3608 b2be
00000010: 1a4f 383f cd2b 4c3f c56a 53be b7d6 8c3e
00000020: b6d1 00bf 581b 0abf d690 623f a013 c7be
00000030: 5ec6 8fbe 9bfb 0d3e d86c 2c3f f46d b5be
